Gharrafa_PG_avgbaseline_nocollision.model (torch_old, 170674 bytes, 4 tensors)

weight f4 [512, 68]
00000000: 419c 7d3e 209a d93d 1e35 193e fcc6 40bd
00000010: b6ff 0b3d 0bbe 043e 0814 c93c e25e ba3d
00000020: 01cf ccbd 88f8 de3d 692b e73d 06f2 2f3e
00000030: b616 923d cddd 223d 3878 c63e 17c6 2b3e
00000040: de90 01be 1632 96be a338 13be 581d 273d
00000050: ba3a a73d c03e 643b 0124 4d3d 78d0 08bc
00000060: 15f9 3abe aaf1 5dbd 3fd0 d03d 93ab 803b
00000070: e06d ef3d 3cda 0a3e 3ec6 663c 35ee 1ebb
00000080: 34c5 df3d 751e 2cbc 991e 5f3e 1949 ccbd
00000090: 867e b73d bd5d 89bd 8d2f 153d f6a8 003e
000000a0: c4fe 80bd bf93 353e cbe9 9f3c 739b 1c3e
000000b0: 9280 043e 6807 49bd faa6 293e ccf2 f0bd
000000c0: 75ec 393d 2fde bf3e ed14 003c 6043 aa3d
000000d0: 15da 293c 0df1 bd3d 8ff4 fc3d 2d7d 3a3e
000000e0: f43a e13d 123d 093d 19e6 cb3d 8cd2 d23b
000000f0: 7387 b03d fcb2 90bc 33ce 8c3e 575c bcbd
00000100: a627 28be ba55 f7bd 0362 193e 7c88 19be
00000110: 14ad afbc 77dd ea3d 6480 203d bf0f 213c
00000120: 396a b73d 8565 913d ff12 cd3d ad24 0b3d
00000130: d775 333d 0cfe 413e 0667 b1bc dbad 973c
00000140: 029a ed3d ec8b 9b3d 79a1 0bbe ffcf e33d
00000150: ce2d efbd 81d6 0d3d ca3c c5be bbda 99be
00000160: f01f 3e3d eef7 7abd 8a39 ac3d 21ae 7cbd
00000170: 9655 d93d ddf1 53bd c9a2 b83d 7dc9 533e
00000180: b3af 72ba a4a0 bcbd 4d77 1c3b 448c 783c
00000190: 88f1 133e c450 583d 5f97 16be df2e bfbc
000001a0: 216f 473e 29c3 04be e247 9c3d e333 81bd
000001b0: 6c41 913d 1777 4a3d 7495 1b3e f583 47be
000001c0: f398 98bd 2890 b23d 45ba 343c ae4e 6cbe
000001d0: c375 c23d f025 103e 52ca efbc 5cf1 0dbe
000001e0: 39dc 6d3d 8be4 0f3c 5e44 24be bc30 53be
000001f0: f710 53bc cebf 45bd e14a 9cbd bd6a 463e
00000200: 88cd 043c 303d 763d 913d 37be d3e8 b13c
00000210: 6b9c 33bd 4c14 9d3e 91cc 2c3e 224d 343e
00000220: cf7d 13be 60c1 2c3e 5f03 d7bb d8b4 c6bc
00000230: b72d 6a3d dcf5 f93d 9b08 133b d2e2 923d
00000240: 091a 203d ae1d 9e3d 3825 b53b 1fe8 623d
00000250: 7814 6b3d 8f47 6f3d 8cae 5bbd fc09 0d3e
00000260: 1b5a b2bd f6b6 b4bb 6315 98be 30e3 86be
00000270: 2730 ef3c 7f78 97bd 1f36 4b3e 7649 de3d
00000280: 66c1 303e 9a55 29bd 2162 1e3d 6982 283e
00000290: 32af 1c3d 9a34 59be b3c0 cd3d 3746 6e3e
000002a0: 57c4 bd3d b41a 093e 708b 6bbe e79b 093e
000002b0: 3eff 34bd 91ba 69bd 2e7d 9d3d a906 efbd
000002c0: 0b9a 493d 565a 3b3d 5f37 37bc c427 4fbd
000002d0: 89ef 00bd 208d f2bc 9568 733d 29e8 15be
000002e0: 6397 8dbd d388 ccbd 1f22 7a3d afc8 bf3c
000002f0: cde8 1f3c 047d 45bd 5006 85be 0356 8ebe
00000300: a144 55be 150b 0bbd 518e b13d 3570 dd3d
00000310: 7b23 27be 9644 e03d e4da 1c3c a95d 363e
00000320: 940f 74bc 704f 5c3e 829c 243e ad92 273e
00000330: 51fe aebd a8d9 303e 37d4 6b3d e552 62bc
00000340: 59fd 8abd 70aa 4fbc 168f 903d 8334 49bd
00000350: 7ed0 ccbd d9fa 4d3d eac6 6d3d cfb9 68b9
00000360: e09f 01bd c48d a4bd e13e 933d 9c80 91bc
00000370: 741c 6dbe 68f2 c73a af5b 10be 5bbb 7ebe
00000380: eeb0 38bd cae1 e1bd 6afe 1bbe b71b c5bd
00000390: cbdb 953d 1aca 183d 0880 c43d 748e 81bd
000003a0: ff87 e03d 8eb6 5cbc e69b c83c 01cf 253d
000003b0: a399 f13d ccc9 0dbe 9474 303d 566c e4bd
000003c0: fe80 ae3d 692f 1dbe 7a2d 833d c26c 7fbd
000003d0: c3d7 c13b c5c0 f9bd 7795 e13c d90b edbc
000003e0: 2c1e f1bd c2bb a73d b8ef e63d 88ee eebd
000003f0: aaa7 ee3b fb21 253e ad37 2b3e 6f6e e53d
0.24766637 0.106251 0.14961669 -0.047064766 0.03417941 0.1296312 0.024545684 0.09100129
-0.1000042 0.10887247 0.11287577 0.17182168 0.07133238 0.039762307 0.38763595 0.16774784
-0.12652919 -0.29335088 -0.14377074 0.04079947 0.08165498 0.003482744 0.050083164 -0.008350484
-0.1825908 -0.054185547 0.1019597 0.0039267032 0.11690879 0.13559812 0.014085351 -0.002425087
0.109262854 -0.010505308 0.21789016 -0.0997488 0.08959679 -0.06707332 0.0364223 0.12564453
-0.06298593 0.17732142 0.01952066 0.15293674 0.1293967 -0.04907933 0.16567603 -0.1176506
0.04539152 0.374742 0.007817489 0.08313632 0.010366936 0.092744924 0.12351333 0.18211813
0.109975725 0.033505507 0.09955997 0.0064337905 0.08619585 -0.017663471 0.27501068 -0.091973
-0.16421375 -0.12076898 0.14978795 -0.14993471 -0.021444835 0.11468022 0.039184943 0.009830414
0.08955807 0.070994414 0.10013389 0.033970524 0.043813553 0.18944567 -0.02165557 0.018515518
0.1160164 0.07595047 -0.13635816 0.111236565 -0.116786584 0.034628395 -0.3852294 -0.3004969
0.046417177 -0.0612716 0.08409412 -0.0616895 0.10612027 -0.05174433 0.09015424 0.2068233
-0.00092577486 -0.09210327 0.002387482 0.015170161 0.14447606 0.0528114 -0.14706181 -0.02333778
0.19475986 -0.12965073 0.07630898 -0.06308725 0.07092556 0.04942998 0.1519373 -0.19483931
-0.07451048 0.08718902 0.011030738 -0.23076889 0.094951175 0.14076972 -0.029271279 -0.13861603
0.05807135 0.008782516 -0.16041705 -0.2062406 -0.012882463 -0.048278622 -0.076314695 0.19376655
0.008105643 0.060116947 -0.1789458 0.021717465 -0.043850344 0.30679548 0.16874911 0.17607549
-0.14403461 0.16870642 -0.006561681 -0.024256155 0.057172503 0.12205097 0.002243555 0.07172169
0.03908733 0.07720505 0.0055281185 0.05539715 0.057392567 0.058417853 -0.053633258 0.1377334
-0.087085925 -0.0055149747 -0.29703817 -0.26345205 0.029197766 -0.0739603 0.19844864 0.10853855
0.17261276 -0.0413414 0.0386678 0.16455998 0.038253017 -0.21211472 0.1004652 0.23268972
0.092659645 0.13389093 -0.2300241 0.13438378 -0.04418873 -0.05706269 0.07689892 -0.11671192
0.049219172 0.045740448 -0.011182635 -0.050575033 -0.03147844 -0.02960831 0.05942591 -0.14639343
-0.0691364 -0.09987035 0.061067697 0.023411123 0.009760094 -0.048214927 -0.2598138 -0.27799997
-0.20826961 -0.033946116 0.08669723 0.108124174 -0.16322128 0.10950582 0.009573672 0.17809166
-0.014896292 0.21514678 0.16075328 0.16364546 -0.08544601 0.1727053 0.05757543 -0.013813709
-0.067866035 -0.012674913 0.070585415 -0.049122345 -0.10000704 0.050288055 0.058051027 -0.00022194463
-0.03164661 -0.08034852 0.071897276 -0.017761521 -0.23155385 0.0015254738 -0.14097475 -0.24876158
-0.04509061 -0.11029394 -0.1523377 -0.09624427 0.07317313 0.037302114 0.095947325 -0.06325999
0.10963439 -0.013471259 0.0244884 0.040480617 0.11796882 -0.1384651 0.043079928 -0.11153476
0.08520697 -0.15350117 0.06405158 -0.06235958 0.0059156134 -0.12194971 0.02753709 -0.028936313
-0.11773333 0.08190109 0.112761915 -0.1166659 0.0072831707 0.16126244 0.16720457 0.11202704

bias f4 [512]
00000000: e677 08be c192 18bd e738 123e a38f 653d
00000010: ccd6 19bd a011 4cbd df55 b4bd 3d20 463c
00000020: 9d24 2dbe 81b5 2fbe 3107 2fbd ee4e 1bbe
00000030: aa33 17be acdd 463d 8ecd 17be 2cbf 22bc
00000040: 0e43 d4bd c7af a7bd ffda 92bd a29b 24bd
00000050: bec0 f4bd e64c 073d f506 c1bc 25e2 0abe
00000060: 8f3d c1bc cb1a 48bd d841 25bd e514 de3c
00000070: a28e 01be 1629 d1bd 4294 41be d822 eabd
00000080: 92fc ebbc 297a 59bd 3f92 a8bd 7d30 c8bd
00000090: c945 95bd 68be a7bc b221 e9bc 3549 edbd
000000a0: b0f5 903c fb12 dfbd e2a7 8fbd 30ba 35be
000000b0: 0232 e4bc e530 bcbd 3f3d 773d f8cc adbd
000000c0: 6236 87bd 3271 1ebe e9cc 15be f398 13be
000000d0: 2bf9 11bd 81ac 99bc 574d 63bd 0b49 0fbe
000000e0: 32ce a2bd b227 dfbb 0f82 7dbd 64b5 1abe
000000f0: c38d e8bc 34a8 d7bd 38cf 09be 14c3 bdbc
00000100: 44c8 e2bc 89ba 51bd 98a6 733d 42b0 f8bc
00000110: 6f8e 09bd ed60 aebd 5cc5 a8bd 30ab 923c
00000120: 2960 ff3d ffe6 ecbd bfb6 983d 9048 583d
00000130: 4c98 ecbc de99 8cba 838b eabc 78ec a7bd
00000140: 70ac 21be f962 7ebd 34ba e2bd c15a f6bd
00000150: 9c88 c3bd ac42 07be 73d1 b5bc 511e 72bd
00000160: 856d e5bb ad95 233d 05ed 21be 8824 0f3d
00000170: 48df 8dbd f9bf b1bd 40d4 00be e943 f33b
00000180: ceed d2bd a23a 0f3d 2be6 57be 1929 b2bd
00000190: 3cb4 93bd 0b48 e6bb 64c5 00bd d188 8abd
000001a0: 60f8 b5bc 173f ed3c fceb e1bc 0a32 f1b9
000001b0: 6077 66bd a772 acbd 47e9 f83c dd61 1abe
000001c0: d0de 47be 30ba 1cbe d3a7 92bc a3ad 71bd
000001d0: 6cb4 5fbd 00e2 6e3d ce9b 843d 9ebe 32be
000001e0: acb6 eebc 0a66 2fbe c7a6 a6bc ed47 5b3d
000001f0: f94a b9bd a1cc 43bd 5ddc 68bd c790 27be
00000200: 8f42 0ebe 74d1 1fbd 456d adbd 541a 4dbd
00000210: d56d fd3c f2a9 94bd 3736 08bd ac63 833d
00000220: f810 debd 9ae9 10bb aef5 87bd 419e 02bd
00000230: d021 c2bc fedf 3cbe 0cae 03bd d842 afbd
00000240: acec 32be b7ad 873c 5817 f4bc 9c20 2a3d
00000250: f3bd 2cbd 41a7 75bd 016b 69bd 1bb1 1cbc
00000260: bca9 71bd 6e85 8e3d 912f be3a 93a5 fcbd
00000270: e867 2ebc 6572 45bd 8495 98bc fdaf b03d
00000280: 2afa 87bd 8de0 1cbe 5d82 243d a671 a23d
00000290: 33d9 0dbe e719 453d b48f c1bc c704 983b
000002a0: 51c6 06be 056a f1bd d36d dcbd 099c 32bd
000002b0: ed0e 873d 100f 1d3c fb8a 91bd 3e56 9abd
000002c0: 50dd f8bc fff0 c1bd 1cde eabd b7cc 14bd
000002d0: 937d 69ba 3d7b 88bd 5435 0e3d 0d52 903d
000002e0: ff2d f8bd da05 943d b20e a5bd b89c e3bd
000002f0: e222 27be 8c3e 25be 8a31 473d 0a2c 41bd
00000300: 2ec2 c03c b81a 31be f84c 343d 35ac 09bd
00000310: ac6a efbc 9005 bfbc 4267 aebd 9908 16bd
00000320: ac8e 8b3d 5cda 3bbe 70f7 eabd 3d46 6abc
00000330: c9e9 fcbd adae 2bbd 48e4 403d 6c0a 52be
00000340: 632e c7bc 3d96 cdbd 7c89 113d 810e e93c
00000350: 3f3e 41be 219a 9c3d 481b 74bd 6ab5 3bbd
00000360: 2f04 eebd 35c8 693d b470 a3bc 0368 d3bd
00000370: d2a4 7b3c 37cb 05be 8aaf 26bd b2af 4db8
00000380: 987f 013e 3c25 88bd 1852 12be 328e 36bd
00000390: d03b 62bd 0e19 9d3c 6254 15be fa2d 97bd
000003a0: a3e7 393c c104 c8bd 8468 15bc e470 febd
000003b0: 2c08 46be 1492 e7bd f125 86bc fdb0 5bbd
000003c0: 5c21 a0bd ee14 b4bd 13c3 e8bd d1fb 48be
000003d0: 6cb4 9bbc 741d d8bc 855d f43d ce01 9f3a
000003e0: 154d 29be 9bfb 5d3d c3cf af3d c820 70bd
000003f0: b674 1abe 1ce4 6a3d 4193 4bbe 88d2 5abd
-0.13326988 -0.03724933 0.14279519 0.056045186 -0.037558362 -0.049821496 -0.08805441 0.012092647
-0.16908498 -0.17159082 -0.042731468 -0.15166828 -0.14765802 0.048551247 -0.14824507 -0.009933274
-0.10364352 -0.08187824 -0.071706764 -0.040187486 -0.11950825 0.03303232 -0.023562888 -0.1356283
-0.023588924 -0.048853677 -0.040345997 0.027109573 -0.12652066 -0.10212915 -0.18904212 -0.11432427
-0.028806958 -0.053095017 -0.08231019 -0.097748734 -0.07288701 -0.020476535 -0.02845845 -0.11586229
0.017695278 -0.10892292 -0.07014443 -0.17746806 -0.027855877 -0.091890134 0.060361143 -0.0848636
-0.066021696 -0.15472868 -0.14628948 -0.14413814 -0.035638016 -0.018759014 -0.05549368 -0.13992707
-0.07949485 -0.006810152 -0.06189161 -0.15108258 -0.02838791 -0.10530129 -0.13457954 -0.02316431
-0.027683385 -0.051203284 0.059485048 -0.030357484 -0.0335831 -0.08514581 -0.08240768 0.017903894
0.12469513 -0.115674965 0.07456731 0.052803576 -0.028881215 -0.0010727008 -0.028630977 -0.081994
-0.15788436 -0.062106106 -0.11070672 -0.12029029 -0.095475405 -0.13209027 -0.0221946 -0.059110943
-0.007001581 0.039937664 -0.15813072 0.03494695 -0.06927353 -0.08679194 -0.12580967 0.007423867
-0.10299264 0.034968026 -0.21083896 -0.08699245 -0.07212111 -0.007027631 -0.031438246 -0.06764377
-0.022213161 0.028960748 -0.027578346 -0.00046004384 -0.05626619 -0.08420306 0.030384673 -0.15076394
-0.1951859 -0.153054 -0.01790229 -0.059003484 -0.054615423 0.058321 0.0647503 -0.17455527
-0.02913984 -0.17128769 -0.020343198 0.05353539 -0.09047503 -0.04780257 -0.05685078 -0.16363822
-0.13892578 -0.03901811 -0.08468107 -0.050073937 0.030936161 -0.07258977 -0.03325483 0.06415495
-0.1084308 -0.0022111894 -0.066386566 -0.031889204 -0.023697764 -0.18444821 -0.032148406 -0.08557671
-0.17473096 0.016562326 -0.029796287 0.041535005 -0.042173337 -0.05997396 -0.056986813 -0.00956371
-0.058999762 0.069590434 0.0014510026 -0.12336268 -0.01064489 -0.0482048 -0.018625982 0.08627317
-0.06639512 -0.15320034 0.040163387 0.07931833 -0.13852386 0.048120406 -0.023628093 0.0046392414
-0.13161589 -0.117878 -0.10763135 -0.043605838 0.06594644 0.009586111 -0.071065865 -0.07535981
-0.030378968 -0.094697945 -0.11468145 -0.036328044 -0.00089069566 -0.06664131 0.034718826 0.070469
-0.12118148 0.072276786 -0.080594435 -0.11113876 -0.163219 -0.16137141 0.04863123 -0.04716114
0.023530092 -0.17295349 0.044018716 -0.033611495 -0.02922567 -0.023318082 -0.085157886 -0.036629293
0.06814322 -0.18345016 -0.11472976 -0.014298973 -0.123492785 -0.04191463 0.047092706 -0.20511788
-0.024314111 -0.10038421 0.035531506 0.028449299 -0.18871401 0.07646585 -0.05959633 -0.045827307
-0.11621892 0.057075698 -0.019951202 -0.10322573 0.01535912 -0.13065802 -0.04069475 -4.9039438e-05
0.1264633 -0.06647727 -0.14289129 -0.0445692 -0.055232823 0.019176986 -0.1458297 -0.07381816
0.01134673 -0.09766532 -0.009119157 -0.12423876 -0.19339055 -0.11307159 -0.016375514 -0.053635586
-0.07818863 -0.087930545 -0.113653325 -0.1962731 -0.01900693 -0.026381232 0.119319 0.0012131275
-0.1653331 0.054195028 0.08584549 -0.058625013 -0.15083584 0.05734645 -0.19880392 -0.053423434

weight f4 [11, 512]
00000000: c0a1 7c3e 834f ea3c 62e8 ee38 0e08 49bd
00000010: 62d7 783d ec35 95bc 7d8e 813d b28f f33d
00000020: 8aec 673e afe3 a83d 000f 30bd f498 9dbc
00000030: 641f a6bd 4e6f 413d e329 0bbb b5f7 6b3d
00000040: dfce 6d3c 6ce5 b13c dfa2 dd3d 42b8 4d3d
00000050: 011c b03c f0a7 c93c e050 ac3d 176b 0d3d
00000060: a238 023d 6757 c73d 0c50 2a3d efd0 473d
00000070: 6a53 953c e84d 2b3d 20cb 883d c1c4 b7bd
00000080: 2d26 20bd 12b8 ecbb 650e a43c cb71 5a3d
00000090: 28e3 aa3d 0652 173d 5829 b23c 21f7 b83c
000000a0: 9612 ee3d f225 da3c 6d59 923d 8e39 4a3d
000000b0: eff4 023d e3f0 873c 49d1 aaba bb54 c83c
000000c0: 5fe1 09bd ae34 e8bd cd6a 9bbd 0517 c5bc
000000d0: 34e3 623d 9edd 513c 88dc a43c 7cb8 14bd
000000e0: de29 243d 5c3c 403c 6eaa 533c 0902 963d
000000f0: ab06 773d 97a2 413e a3d8 0b3e 80e9 323c
00000100: de26 a83c 622b 813b f4d1 ba3d 66c7 063c
00000110: 3e06 2b3c 9d29 2d3d 5d8f ec3c 4004 4b3d
00000120: bf76 23bd d301 fa3c 559b 273d 3d9e 933d
00000130: 8b0c ee3c 5654 093d c0e5 943b 1c03 90bc
00000140: 6b09 553d 5641 0e3e f8d3 2a3b 3cdc e6bc
00000150: f138 a9bd 74e1 003e 6132 25bd 1181 df3d
00000160: c14c fc3c 7c25 f93c 6f4d f03d 59f4 d23b
00000170: ede6 383c ef3a 8abd ec56 e2bc b32e cf3d
00000180: d1a4 27bd 141c 013d 27fc 163d 5122 933b
00000190: 8b6d d43c 958b 8b3d d6dc 343d 34c2 1ebd
000001a0: b359 5fbd 3e11 883c 1056 e93c a014 c93d
000001b0: 4567 0e3d 5ad8 83bc 6620 863c ff6f 063e
000001c0: 1106 803d de06 123d f1fe 913d 4cd4 0d3c
000001d0: de99 64bc 6ac3 52bc 2fe8 513d 480c 0fbd
000001e0: 80bd bc3d 221c 65bd 55c8 43bc 05e0 063c
000001f0: bcd7 533d a1d2 393d 7f5f 5f3d 4d84 07bd
00000200: ed6e 8539 b4f1 6f3d ef0d c43d d9b3 9f3d
00000210: 496c 543d 02ae 253c 8813 c13c a4ed 463c
00000220: ac7f 6aba 731f 9f3d 5fdb 65bc b86e 773d
00000230: aab1 69bc 909b 6d3d 7ed8 373d c0d6 763d
00000240: 4a6f 0abd cdfc af3d 4c10 973c 9207 c5bc
00000250: 97d5 d33c 3904 833d 9421 26bd 5368 893d
00000260: 7f36 433d c79f 173d 371b a33d f43b 00bd
00000270: 92d2 403d 422f 36bc 8124 813d f7ee ef3c
00000280: 921e bf3c 8406 c23c c08d 3abc 3460 39bc
00000290: 4c12 033d bdcf 46bc f963 fb3c a832 583c
000002a0: 709e e83c 6739 0d3e efbb b73d 0e6b b83d
000002b0: 8bd7 e2bc 9e5c 003a 918b e1bc 35b4 22bd
000002c0: d460 253d 4647 b63c bbb6 8a3d 2b8e 9b3c
000002d0: a350 ad3d bcbb f73c 144c 8dbd e510 553d
000002e0: d384 63bd bd1e 653e b7bf a43d eb94 85bc
000002f0: 2689 5b3d 993e 583d 1723 1a3d 0e0e ff3d
00000300: 2739 de3c 5bd5 8dbd 4c69 613a b0aa 683c
00000310: b06e af3c e5e2 273d 15a6 903d 5014 e9bc
00000320: 1f59 8b3d 0707 52ba 22a4 c8bc 75c5 74bd
00000330: 0c7c 57bd 60e8 d13b e3a4 5abc 30ff efbc
00000340: cc1e 9d3d bb98 913d 0798 ab3d c0c4 053e
00000350: 453e d33b a2a5 333d a35d a23d 8c42 a73d
00000360: e368 a73d 8e9f 333c b02e e73c f162 563d
00000370: 49c5 2f3d 1760 dfbc 0cb3 7abc 1015 923d
00000380: abeb a6bc 20b1 f93d 6108 223e 9047 8c3b
00000390: d837 1bba d794 733d 9a7e 223c feb0 c73c
000003a0: f1ac 963d addd af3d 2125 3a3d 7f66 db3c
000003b0: c1b0 3d3d 0851 d4bc 617c 2f3c 7446 9a3d
000003c0: 9cc0 2ebc 5df3 e63c c4f3 4b3c 019f 183d
000003d0: cc09 073e 432e 363d a115 e63c 8dff 823d
000003e0: 1480 c3bc 1a5a 1abd a2be 9f3c db29 ab3d
000003f0: 2625 02bc f9b5 88bc 2cad 87bc e776 c8bc
0.24671078 0.028602367 0.00011392009 -0.049079947 0.06075228 -0.018214189 0.063260056 0.11892642
0.22648826 0.08246552 -0.042983055 -0.019237973 -0.08111456 0.04722529 -0.0021234683 0.05760928
0.014514654 0.021715842 0.10822081 0.05022455 0.021497728 0.024616212 0.08413863 0.034525957
0.03179229 0.097334675 0.041580245 0.04878324 0.018228251 0.041822344 0.06679368 -0.08973075
-0.039098907 -0.0072240913 0.020026395 0.053331178 0.08344108 0.036943458 0.02174823 0.022578778
0.11624639 0.026629422 0.07145963 0.049371295 0.031971868 0.016594356 -0.0013032343 0.024454465
-0.033662196 -0.11338173 -0.0758873 -0.024058828 0.05539246 0.012809185 0.020124689 -0.03630875
0.04007899 0.011733141 0.012919052 0.07324607 0.060309093 0.1890968 0.13656859 0.010919929
0.020526346 0.003941939 0.09122077 0.008226251 0.0104385 0.042276014 0.028876955 0.0495646
-0.039908167 0.030518448 0.04091962 0.07207916 0.029058715 0.033527695 0.00454399 -0.017579608
0.052010935 0.13892111 0.0026066285 -0.028181188 -0.08262814 0.12586004 -0.04033125 0.10913289
0.030798318 0.030413382 0.11733519 0.00643782 0.011285526 -0.06749522 -0.027629338 0.10116329
-0.040928666 0.031520918 0.036861565 0.004490175 0.02593114 0.068137325 0.044155918 -0.038759425
-0.054528903 0.016609784 0.02848342 0.09818387 0.034766454 -0.016094375 0.01637287 0.1312866
0.06251157 0.03565108 0.07128704 0.008656573 -0.0139527 -0.012863973 0.05124682 -0.03492382
0.09215832 -0.055935033 -0.011949618 0.008232121 0.051719412 0.045366887 0.05453443 -0.033085156
0.00025450383 0.058580115 0.0957297 0.07797975 0.05186108 0.0101122875 0.023568884 0.012141619
-0.0008945416 0.0776967 -0.014029353 0.060408324 -0.01426355 0.058009684 0.044884197 0.060263395
-0.03379754 0.0859314 0.018440388 -0.024051461 0.025858684 0.0639729 -0.040559366 0.067093514
0.047659393 0.03701761 0.07964175 -0.031307176 0.047075815 -0.011119666 0.06305791 0.029288752
0.023330007 0.023684748 -0.011386335 -0.0113144405 0.03199987 -0.01213449 0.03068732 0.013195671
0.028395861 0.13791429 0.08971392 0.09004794 -0.02769067 0.00048966135 -0.02753237 -0.03972264
0.040375546 0.022250783 0.06773134 0.01898869 0.08462646 0.030240886 -0.068992764 0.052018065
-0.055546593 0.22375007 0.08044379 -0.016306361 0.05359759 0.052794073 0.03763112 0.124538526
0.027126862 -0.0692546 0.00085987593 0.014200851 0.021415085 0.040987868 0.07062928 -0.028452069
0.06804108 -0.00080119114 -0.024492327 -0.059758622 -0.052608535 0.006405875 -0.013344976 -0.029296488
0.0767189 0.07109209 0.08378606 0.13063335 0.006446632 0.04385913 0.07928016 0.0816699
0.081743024 0.010963334 0.028220505 0.05234045 0.042912755 -0.027267499 -0.015301477 0.071329236
-0.020376047 0.12191987 0.15823509 0.004280992 -0.0005921102 0.059468117 0.0099178795 0.024376389
0.07357205 0.08587203 0.045445565 0.026782272 0.046311144 -0.025917545 0.010710807 0.07532969
-0.010666039 0.028192217 0.012448255 0.037261013 0.13187331 0.044477712 0.028086485 0.06396399
-0.023864783 -0.037683584 0.01950008 0.08357593 -0.007943427 -0.016688334 -0.016562067 -0.02447076

bias f4 [11]
00000000: bb03 c13d 21ae 8cbc 226f 42bd b385 883d
00000010: fe2b 3abb 3e12 b8bc 59b4 83bc 94df ec3d
00000020: 26bc a73d 5d3c da3d b332 b13d
0.0942454 -0.017172875 -0.047469266 0.06666126 -0.002840757 -0.022469636 -0.016077207 0.11566082
0.08190183 0.10656045 0.08652248
