Train_PG_timecritic_Gt_Rmeans_entropy_nb2_lr00001_3000.model (torch_old, 170674 bytes, 4 tensors)

weight f4 [512, 68]
-0.02434182 -0.017905934 -0.050603807 0.008718319 0.010288121 -0.10991931 0.078889996 -0.06957056
0.0118481815 0.056189958 0.10732891 0.06259894 -0.023911953 -0.0108068725 0.10903323 -0.08669018
-0.10322772 -0.027247703 0.032165203 -0.057578146 -0.05509389 -0.055496816 0.08702296 -0.11369728
0.050401602 -0.037586175 -0.06746994 0.07372842 -0.04738113 0.024053492 -0.097118765 0.083838776
0.059079584 0.016554754 0.07245599 -0.065384924 0.09240717 0.10957964 -0.030757628 0.099995464
-0.0115705645 -0.10811522 -0.0694314 -0.045340728 -0.09944766 0.038539916 0.06445523 -0.08038063
-0.018153379 0.07237065 -0.11321585 -0.05327895 0.10109918 -0.0044236975 -0.063419014 -0.077475935
-0.002469609 0.098891385 0.12292588 -0.062410004 0.0071329605 0.10285087 -0.031503502 -0.040700387
0.07961343 0.0005033722 -0.097796954 0.090350635 -0.10285948 0.08937238 -0.069406 -0.09947118
0.11470873 -0.02835597 -0.07837628 -0.043134898 0.09398199 -0.111264765 0.055764385 -0.047450945
-0.02722311 -0.10066803 -0.07281724 -0.116795994 -0.10377361 -0.07843497 -0.021714937 0.035494607
-0.03351957 -0.07519931 0.09489204 0.107356265 0.09642787 -0.02803241 -0.05182699 0.06179343
0.048698008 -0.017680597 -0.1135558 0.08563024 -0.10052752 -0.04459914 0.02511017 -0.060337123
-0.016662452 -0.10724057 0.026600575 0.06539248 0.037719868 0.059814785 0.11151803 0.0309358
0.017574644 0.0695937 -0.099689595 -0.07664052 0.018489929 -0.09158445 0.093098976 -0.027328182
0.039573543 0.0085682655 0.035313237 0.04423598 0.06276373 -0.12387633 0.11250616 -0.11059865
-0.029800486 -0.010304887 -0.110270105 0.030525802 -0.1018764 -0.094019964 -0.074221276 0.002683924
0.0028952854 0.016931292 0.08299604 -0.0318474 -0.07445385 0.120427154 0.10043396 0.083894245
0.08373891 -0.013229274 0.047020778 0.1110063 -0.0993513 -0.05783029 0.047418524 0.003498526
0.06863325 -0.0733286 0.12587295 -0.10841986 -0.0092469 0.002726911 0.03971246 -0.020985622
-0.07783205 0.06975729 -0.053449526 0.059041087 -0.089865655 -0.011421301 0.026731793 0.016323382
0.028813547 -0.072793774 0.09753138 0.08846828 0.047934078 0.10741265 -0.11376791 0.09069684
-0.08622749 -0.10284485 0.011694801 -0.020132298 -0.0051138587 -0.034458824 0.006087307 0.0013961614
0.04106887 -0.011097609 -0.058314726 0.10897279 -0.038915403 0.05396309 0.105713785 0.10728283
-0.030410318 0.012223314 -0.08782927 -0.00921867 0.00096186326 0.04005036 -0.114668794 -0.02064911
0.10267942 0.0028425267 0.0004938282 -0.06646313 -0.049627863 0.03912588 0.10847363 0.085244454
0.06593418 0.020881817 0.03708531 -0.043689862 0.008321382 0.022344789 0.10889604 0.08521061
0.026794523 -0.05117765 -0.04234273 -0.102991834 0.051222567 -0.012667146 -0.029379593 0.03538354
-0.118517905 -0.041109953 -0.016417965 -0.07093977 -0.117227875 -0.08065533 -0.07980859 0.061952133
0.019292003 -0.010431752 0.10329239 -0.031337246 -0.04808579 -0.021300767 0.084735245 0.006333398
-0.035762403 0.120319664 -0.10948056 -0.11645064 0.09981531 -0.10302531 -0.02426053 -0.054662563
-0.12802698 0.07540539 -0.036680475 0.029265875 -0.018675568 -0.11250437 -0.01055039 -0.035146464
00000000: 7f68 c7bc 77af 92bc f045 4fbd 48d7 0e3c
00000010: 828f 283c 601d e1bd 1491 a13d 027b 8ebd
00000020: e01e 423c 7127 663d 42cf db3d e033 803d
00000030: 00e3 c3bc 4f0f 31bc d04c df3d 9f8a b1bd
00000040: 0e69 d3bd 9336 dfbc a9bf 033d 10d7 6bbd
00000050: 21aa 61bd a150 63bd 1839 b23d 1fda e8bd
00000060: e971 4e3d f6f3 19bd ae2d 8abd edfe 963d
00000070: b712 42bd d40b c53c 34e6 c6bd aab3 ab3d
00000080: 6ffd 713d d69d 873c ce63 943d 88e8 85bd
00000090: f83f bd3d 4a6b e03d 6cf7 fbbc 6cca cc3d
000000a0: 7792 3dbc 836b ddbd 0d32 8ebd 33b7 39bd
000000b0: 37ab cbbd 08dc 1d3d 1b01 843d 9a9e a4bd
000000c0: 65b6 94bc 1037 943d b6dd e7bd 073b 5abd
000000d0: 160d cf3d aaf4 90bb d4e1 81bd b4ab 9ebd
000000e0: 2ad9 21bb 9187 ca3d 90c0 fb3d a2a1 7fbd
000000f0: 9cbb e93b 7aa3 d23d d109 01bd 73b5 26bd
00000100: 5e0c a33d bdf4 033a c549 c8bd c109 b93d
00000110: fea7 d2bd de08 b73d bc24 8ebd 8cb7 cbbd
00000120: 69ec ea3d c74a e8bc be83 a0bd 38ae 30bd
00000130: a179 c03d c8de e3bd 3269 643d ec5b 42bd
00000140: 0003 dfbc 0a2b cebd 3521 95bd bd32 efbd
00000150: 4287 d4bd 83a2 a0bd 86e3 b1bc cb62 113d
00000160: d14b 09bd 1902 9abd c256 c23d 9add db3d
00000170: fa7b c53d 3aa4 e5bc 8a48 54bd 1c1b 7d3d
00000180: 9077 473d e6d6 90bc f18f e8bd e85e af3d
00000190: 5fe1 cdbd 96ad 36bd d8b3 cd3c 0f24 77bd
000001a0: b27f 88bc f2a0 dbbd 73e9 d93c 7eec 853d
000001b0: 2680 1a3d 5900 753d 9163 e43d 136d fd3c
000001c0: b3f8 8f3c 2487 8e3d 0f2a ccbd b4f5 9cbd
000001d0: 3178 973c a190 bbbd adaa be3d 5adf dfbc
000001e0: de17 223d e961 0c3c 9da4 103d c930 353d
000001f0: 458a 803d e0b2 fdbd a169 e63d 8c81 e2bd
00000200: 2620 f4bc d4d5 28bc 4bd5 e1bd 3f11 fa3c
00000210: 93a4 d0bd 8a8d c0bd 5301 98bd c6e4 2f3b
00000220: d4be 3d3b 7eb3 8a3c d4f9 a93d 6b72 02bd
00000230: 437b 98bd 83a2 f63d 52b0 cd3d bfd0 ab3d
00000240: 4e7f ab3d 99bf 58bc dc98 403d 4557 e33d
00000250: b278 cbbd 74df 6cbd ed39 423d 8747 653b
00000260: 978f 8c3d 4e2d 96bd d7e4 003e 3b0b debd
00000270: 4f80 17bc fab5 323b 88a9 223d 0aea abbc
00000280: 6966 9fbd e9dc 8e3d e4ed 5abd 11d5 713d
00000290: 7c0b b8bd 6920 3bbc a2fc da3c 9db8 853c
000002a0: 630a ec3c e714 95bd 88be c73d dc2e b53d
000002b0: 8656 443d 2afb db3d 26ff e8bd 44bf b93d
000002c0: 0a98 b0bd 52a0 d2bd 8d9b 3f3c 7dec a4bc
000002d0: 2892 a7bb b224 0dbd 0878 c73b 67ff b63a
000002e0: d537 283d bfd2 35bc 6cdb 6ebd 202d df3d
000002f0: c265 1fbd 6708 5d3d 7880 d83d 1ab7 db3d
00000300: 0f1f f9bc 4b44 483c d5df b3bd e809 17bc
00000310: 8d25 7c3a d90b 243d 79d7 eabd 5328 a9bc
00000320: 9649 d23d af49 3a3b 4074 013a d21d 88bd
00000330: 9646 4bbd 7542 203d 6c27 de3d a594 ae3d
00000340: 8008 873d 5810 ab3c c4e6 173d 24f4 32bd
00000350: 6856 083c 6b0c b73c e304 df3d e682 ae3d
00000360: 3080 db3c a89f 51bd 926f 2dbd 62ed d2bd
00000370: c1ce 513d dc89 4fbc 79ad f0bc 55ee 103d
00000380: 84b9 f2bd e962 28bd f87e 86bc df48 91bd
00000390: 2b15 f0bd 9f2e a5bd b072 a3bd 85c1 7d3d
000003a0: 430a 9e3c f0e9 2abc f68a d33d 7c5b 00bd
000003b0: 9bf5 44bd f27e aebc ac89 ad3d 6588 cf3b
000003c0: 997b 12bd 286a f63d 5837 e0bd ac7d eebd
000003d0: f86b cc3d effe d2bd 05be c6bc dae5 5fbd
000003e0: 8119 03be 246e 9a3d 443e 16bd fdbe ef3c
000003f0: 81fd 98bc b168 e6bd 8bdb 2cbc bdf5 0fbd

bias f4 [512]
-0.093084134 -0.053317614 0.11552136 0.018502608 0.043295283 -0.0018478484 0.00331212 -0.07173208
-0.110736564 -0.05180906 -0.10708163 -0.022438193 -0.020044055 -0.037877187 -0.07182672 0.044878058
0.11523869 -0.011462314 -0.09632499 -0.042429976 -0.05001661 0.017979736 -0.03524362 0.03676165
-0.05252093 0.06769029 0.050814714 -0.060661446 0.101567864 0.006547186 -0.11548486 -0.11035496
0.054915864 0.049348388 0.102549165 0.04117592 -0.12076364 -0.026523719 0.0002096247 -0.04753495
0.070143215 -0.025779437 0.11484449 0.10797003 0.098597534 -0.107884556 0.03642506 0.05868916
-0.08014035 0.115294546 -0.07708544 -0.041626178 0.02627973 0.11165623 0.064140655 -0.018201461
0.027487095 0.08470314 0.11612546 -0.112646006 -0.0067378692 0.024248108 -0.10651845 -0.03919688
-0.09385268 0.018780662 0.08187926 0.02107465 -0.014175172 -0.09599523 -0.023577187 0.05413816
-0.018496443 0.106215626 0.10302425 -0.038341694 0.036193516 0.093698055 0.05388624 0.07822318
-0.013921043 0.05156669 0.09489722 0.05396266 0.1125081 0.120727666 -0.009619047 -0.053827018
0.12522756 0.008696422 0.04361097 0.115017585 -0.12729758 -0.10232913 0.05437021 -0.081765406
-0.112338856 0.018226141 0.007788148 0.06931794 0.016929572 -0.08714685 0.002595966 -0.0031146796
0.034659736 -0.109037854 -0.11294901 -0.05315171 -0.04368726 -0.038222235 -0.093961656 -0.052981373
0.11628359 -0.09414697 0.009652104 0.05907731 -0.06669401 0.005344783 0.059375513 0.08731941
-0.12025751 0.0018681724 -0.12628616 0.058839187 0.019605022 0.11847568 0.11900724 0.009521598
-0.050332155 -0.094792575 0.03818443 -0.071697995 0.10638655 0.014202107 -0.095409155 -0.021409709
-0.0815287 -0.00910192 -0.101517975 0.10713979 -0.07584255 -0.07552173 -0.0048589716 0.019439982
-0.08606752 0.05799638 0.033233136 0.072915636 -0.06188452 -0.08759433 0.04654585 -0.09932977
0.054987594 -0.051562276 -0.039507672 -0.046713497 0.057150394 0.099497736 -0.074253164 -0.07493871
-0.08213356 -0.030749995 -0.06797001 0.070272975 -0.015971363 0.0027695878 0.027556686 0.03770419
0.114306666 -0.063458644 -0.07494333 0.024844447 0.10899657 0.11370767 0.08269511 -0.030866064
0.046425328 0.08552699 -0.0036583308 -0.11497343 0.044682153 -0.036222007 0.06955053 -0.026842704
0.022267468 0.059183262 -0.09216424 0.0012855094 0.09937875 0.08396108 0.024163596 0.039646447
0.09277138 0.09610169 -0.078911625 -0.07674578 0.010903947 -0.0062402794 -0.0024884862 -0.10423908
0.017848797 0.11179987 0.113448426 -0.01675834 0.04501981 -0.03827354 -0.02802698 0.072913095
0.092640266 0.037139714 0.014020507 -0.0048168376 -0.089701556 -0.014448274 0.094830684 0.036635898
-0.11583892 -0.093003064 0.09018129 0.045065623 0.010942024 0.059794497 -0.04776802 0.038014654
0.10667445 -0.052657265 -0.001378116 -0.05528903 0.061653942 0.109141946 0.0018595612 0.06871626
0.081426375 -0.076319866 -0.061906915 -0.104864076 0.024344282 -0.07866382 -0.06416776 -0.070767
0.04158879 -0.0026347353 -0.04611176 0.0343203 0.026989259 -0.034493748 -0.10633473 -0.11076031
0.051447436 0.02980991 -0.088300265 -0.03211975 -0.09147513 0.088964336 0.0005918193 -0.02985459
00000000: e5a2 bebd 9263 5abd 7696 ec3d c892 973c
00000010: 6556 313d 8133 f2ba 2710 593b 45e8 92bd
00000020: dac9 e2bd bd35 54bd 9d4d dbbd 4dd0 b7bc
00000030: 6e33 a4bc 1c25 1bbd e319 93bd 0ed2 373d
00000040: 4302 ec3d 6ecc 3bbc 0946 c5bd 0ecb 2dbd
00000050: 38de 4cbd 3d4a 933c 9d5b 10bd 6293 163d
00000060: 3020 57bd 35a1 8a3d 1723 503d 2378 78bd
00000070: d002 d03d c789 d63b 5483 ecbd c801 e2bd
00000080: 75ef 603d 8921 4a3d 4c05 d23d 15a8 283d
00000090: ed52 f7bd 4548 d9bc b4ce 5b39 02b4 42bd
000000a0: 3fa7 8f3d 662f d3bc 9733 eb3d 641f dd3d
000000b0: 81ed c93d 94f2 dcbd 7232 153d 0b64 703d
000000c0: a020 a4bd 8c1f ec3d f9de 9dbd 3680 2abd
000000d0: 9748 d73c 06ac e43d 2d5c 833d 3b1b 95bc
000000e0: 9e2c e13c d778 ad3d 2fd3 ed3d f3b2 e6bd
000000f0: 58c9 dcbb f8a3 c63c 5826 dabd e88c 20bd
00000100: d535 c0bd e7d9 993c 50b0 a73d bfa4 ac3c
00000110: fb3e 68bc 2699 c4bd f224 c1bc fabf 5d3d
00000120: da85 97bc 9487 d93d 61fe d23d 2e0c 1dbd
00000130: a73f 143d c4e4 bf3d d1b7 5c3d 7933 a03d
00000140: 1615 64bc 9837 533d 7959 c23d f307 5d3d
00000150: a66a e63d 1140 f73d 3599 1dbc b879 5cbd
00000160: a73b 003e 707b 0e3c 6ba1 323d 578e eb3d
00000170: 4c5a 02be ef91 d1bd 4cb3 5e3d 9f74 a7bd
00000180: ea11 e6bd fd4e 953c b833 ff3b 90f6 8d3d
00000190: e3af 8a3c 0c7a b2bd 1521 2a3b a71f 4cbb
000001a0: 5ef7 0d3d 3d4f dfbd d051 e7bd 9cb5 59bd
000001b0: 6af1 32bd eb8e 1cbd f86e c0bd ff02 59bd
000001c0: 1726 ee3d 20d0 c0bd dc23 1e3c 0dfb 713d
000001d0: de96 88bd 4a23 af3b bd33 733d 85d4 b23d
000001e0: 9249 f6bd 77dd f43a 2951 01be 5c01 713d
000001f0: b69a a03c 61a3 f23d 11ba f33d 7a00 1c3c
00000200: 1729 4ebd 9c22 c2bd 4767 1c3d 66d6 92bd
00000210: 31e1 d93d f4af 683c e065 c3bd 6a63 afbc
00000220: 85f8 a6bd 3820 15bc a8e8 cfbd 1b6c db3d
00000230: 5753 9bbd 23ab 9abd 0238 9fbb 9940 9f3c
00000240: 2b44 b0bd 9d8d 6d3d 781f 083d cb54 953d
00000250: 9f7a 7dbd a864 b3bd dca6 3e3d 686d cbbd
00000260: ac3a 613d f732 53bd ccd2 21bd a756 3fbd
00000270: 8816 6a3d 78c5 cb3d 0b12 98bd 7779 99bd
00000280: a435 a8bd 6ae7 fbbc dc33 8bbd 47eb 8f3d
00000290: 60d6 82bc f981 353b 8fbe e13c b56f 1a3d
000002a0: 9d19 ea3d 9bf6 81bd e37b 99bd 9586 cb3c
000002b0: 9839 df3d 91df e83d 0e5c a93d d4da fcbc
000002c0: 7c28 3e3d c628 af3d 9bc0 6fbb 3177 ebbd
000002d0: a204 373d 875d 14bd 8270 8e3d 3be5 dbbc
000002e0: 446a b63c 266a 723d 9bc0 bcbd 8a7e a83a
000002f0: 1687 cb3d c9f3 ab3d bcf2 c53c 5064 223d
00000300: ecfe bd3d f6d0 c43d 6b9c a1bd e42c 9dbd
00000310: 78a6 323c 427b ccbb df15 23bb 4c7b d5bd
00000320: a437 923c 55f7 e43d a657 e83d c948 89bc
00000330: b166 383d b7c4 1cbd d698 e5bc 7653 953d
00000340: 2eba bd3d d01f 183d 45b6 653c 90d6 9dbb
00000350: 73b5 b7bd 74b8 6cbc 9736 c23d 860f 163d
00000360: f53c edbd 6478 bebd f8b0 b83d bb96 383d
00000370: 2d46 333c 13eb 743d 66a8 43bd 41b5 1b3d
00000380: 2278 da3d 25af 57bd e6a1 b4ba c076 62bd
00000390: d888 7c3d d085 df3d 85bc f33a 1cbb 8c3d
000003a0: dfc2 a63d 974d 9cbd 1b92 7dbd fac2 d6bd
000003b0: a96d c73c 7f1a a1bd 636a 83bd 4aee 90bd
000003c0: 0259 2a3d 86ab 2cbb afdf 3cbd 7193 0c3d
000003d0: 9418 dd3c 5149 0dbd 06c6 d9bd 4dd6 e2bd
000003e0: 8cba 523d ea33 f43c c5d6 b4bd 0090 03bd
000003f0: 5057 bbbd ef32 b63d 5224 1b3a 9d91 f4bc

weight f4 [11, 512]
-0.0020468668 0.03672344 -0.014123455 -0.024060309 0.0421559 0.013765148 0.024710283 0.0484497
-0.01480066 -0.017243447 -0.027844796 0.0282278 0.0029954682 0.022980863 -0.024495639 0.024446273
0.004000071 -0.008591394 -0.021282956 -0.024164837 -0.020798123 0.033559836 -0.044872183 0.045131594
0.016029865 0.042608988 0.026046373 0.033085708 0.03159997 0.012213374 -0.011460199 -0.01289641
-0.01888881 -0.023739083 -0.018333096 -0.030856196 -0.023247385 -0.04669881 0.009857278 0.01106996
0.023469588 -0.029668704 0.0025749009 -0.016466774 0.020698676 0.0054551186 -0.03667949 0.030974079
0.016053207 0.009793159 0.040062748 -0.0470295 -0.029163502 0.008332863 0.028715074 0.005479289
-0.044493724 -0.0140803205 -0.03823327 -0.024357392 -0.0053857598 0.0024226431 -0.015589714 0.04415143
-0.006231282 -0.011141081 0.01634027 0.016190847 -0.05214582 -0.0074541755 0.058297947 -0.024737097
-0.0020061764 -0.033554126 0.008792332 -0.024361994 -0.0003223301 0.0026351416 0.034469046 0.034756795
-0.013007545 -0.04751531 -0.036624264 0.021577276 -0.006554181 -0.029560314 -0.014633645 -0.037435904
-0.030685619 0.001982572 0.0033028827 -0.019411316 -0.007986178 -0.04097676 0.03250011 -0.0071279793
-0.0010468354 -0.0008104889 0.035050195 -0.04083996 -0.021807699 -0.027818877 -0.04702221 0.01106475
-0.018281642 0.024085537 0.029290106 0.034781247 -0.008961996 -0.03512195 0.01547961 -0.03557636
-0.025492406 0.023747407 -0.0036409737 0.040100504 0.021239975 -0.029051011 -0.042470384 0.043447133
-0.030128349 -0.015448872 -0.023363069 -0.010051535 0.027205793 0.0052886885 0.0068280506 0.01283316
0.030681984 -0.035364527 0.034934547 -0.026424736 -0.044169124 -0.04562298 -0.022432199 -0.028419554
0.03479475 0.012986589 0.019836888 -0.030017754 0.003015025 0.038289737 0.0022969244 0.011603802
0.017621994 -0.045074116 0.028234972 0.0072003943 0.03888701 -0.03207876 0.012936193 0.044607494
-0.027787281 0.006387589 -0.00017299548 -0.031184146 0.0151689295 -0.020697443 -0.027251018 0.02686857
0.03166472 -0.021990525 0.0020052167 -0.009708217 -0.029001728 -0.006270996 -0.032995053 0.023419352
-0.0004625475 0.030817103 -0.039885245 0.006063723 -0.024131855 -0.03843761 -0.0016959724 -0.011791453
-0.021741178 0.027083598 -0.044234507 0.049173497 -0.02405046 -0.022166068 0.0019637386 0.008094561
-0.03710604 -0.008379577 0.029746471 0.032848474 -0.027849402 0.04326589 -0.026816616 0.035954036
-0.035689175 -0.01440879 -0.0199644 -0.032787412 -0.010859841 -0.033632018 -0.035556015 0.011488927
0.023649175 0.025758877 -0.036965966 0.021100534 -0.007316677 0.01945908 -0.005234037 -0.03564489
0.00478608 -0.01540288 0.03484554 0.0019097049 -0.03201821 -0.035469063 -0.0035980968 0.028152715
0.018971123 0.020981789 0.03902496 0.03781023 -0.0023961212 0.025859304 -0.0070407134 0.015215031
-0.006938989 0.024764536 -0.0040013576 0.0077444525 0.039606944 -0.030604068 -0.032396633 -0.04331595
0.03220269 -0.009315104 -0.01786216 0.024322897 -0.0487346 -0.04490634 -0.009645502 -0.03623063
-0.025303176 -0.01390951 0.017515412 0.037879176 0.0034026483 -0.003928601 -0.04886675 -0.012978708
-0.0060876547 0.010747275 0.03703202 0.01172097 0.00087352423 -0.023859821 7.757284e-05 0.023802666
00000000: ba24 06bb 516b 163d 1066 67bc 201a c5bc
00000010: aaab 2c3d 3787 613c 386d ca3c 3173 463d
00000020: 787e 72bc 2142 8dbc c51a e4bc fd3d e73c
00000030: 9e4f 443b 5d42 bc3c 14ab c8bc 8d43 c83c
00000040: 0713 833b ebc2 0cbc 9859 aebc 56f5 c5bc
00000050: d360 aabc 0a76 093d e5cb 37bd e8db 383d
00000060: 1051 833c c386 2e3d 345f d53c e184 073d
00000070: f86e 013d 9a1a 483c 8fc3 3bbc 774b 53bc
00000080: b5bc 9abc 7778 c2bc 4a2f 96bc 22c6 fcbc
00000090: 4d71 bebc 4047 3fbd 6c80 213c c75e 353c
000000a0: 4b43 c03c c80b f3bc abbf 283b 54e5 86bc
000000b0: 4590 a93c dac0 b23b 3c3d 16bd 5abd fd3c
000000c0: 0482 833c 7c73 203c d618 243d 01a2 40bd
000000d0: 4ce8 eebc 9086 083c e03b eb3c 9c8b b33b
000000e0: 0d3f 36bd 25b1 66bc 7d9a 1cbd 2789 c7bc
000000f0: 077b b0bb 35c5 1e3b 006c 7fbc 21d8 343d
00000100: c82f ccbb 1589 36bc 08dc 853c aba2 843c
00000110: db96 55bd 2842 f4bb d4c9 6e3d 74a5 cabc
00000120: 0e7a 03bb 0d70 09bd b70d 103c ce92 c7bc
00000130: 6afe a8b9 57b2 2c3b 6a2f 0d3d 245d 0e3d
00000140: 991d 55bc 6a9f 42bd 5303 16bd d4c2 b03c
00000150: 75c4 d6bb 7928 f2bc f5c1 6fbc 6456 19bd
00000160: 6860 fbbc 0aee 013b 2d75 583b 7b04 9fbc
00000170: 75d8 02bc 3fd7 27bd d61e 053d d391 e9bb
00000180: f835 89ba fd76 54ba cb90 0f3d cd47 27bd
00000190: 0fa6 b2bc 6ae4 e3bc 5c9a 40bd ed48 353c
000001a0: 62c3 95bc 084f c53c cef1 ef3c c876 0e3d
000001b0: 56d5 12bc 09dc 0fbd 319e 7d3c 84b8 11bd
000001c0: 73d5 d0bc ec89 c23c 679d 6ebb 6d40 243d
000001d0: 75ff ad3c 63fc edbc 6df5 2dbd 9ff5 313d
000001e0: bacf f6bc 441d 7dbc e863 bfbc 32af 24bc
000001f0: afde de3c bc4c ad3b d7bd df3b 2d42 523c
00000200: c958 fb3c 65da 10bd 8717 0f3d b078 d8bc
00000210: afea 34bd 29df 3abd bbc3 b7bc 20d0 e8bc
00000220: f184 0e3d b4c5 543c f880 a23c cbe7 f5bc
00000230: ba97 453b b3d5 1c3d ff87 163b e01d 3e3c
00000240: 005c 903c a39f 38bd 074d e73c 49f1 eb3b
00000250: fc47 1f3d 0565 03bd 53f2 533c 59b6 363d
00000260: 27a2 e3bc fb4e d13b 1f66 35b9 e575 ffbc
00000270: 1a87 783c af8d a9bc 873d dfbc 7a1b dc3c
00000280: deb2 013d 7925 b4bc f469 033b 370f 1fbc
00000290: 0895 edbc ed7c cdbb d225 07bd f1d9 bf3c
000002a0: 1382 f2b9 2674 fc3c b65e 23bd 32b2 c63b
000002b0: 2bb0 c5bc c170 1dbd 644b deba f030 41bc
000002c0: 8e1a b2bc 6cde dd3c 3e2f 35bd 266a 493d
000002d0: 7805 c5bc 9d95 b5bc 11b2 003b 0d9f 043c
000002e0: 81fc 17bd 7e4a 09bc dfae f33c 1f8c 063d
000002f0: 6e24 e4bc 9337 313d 85ae dbbc 8a44 133d
00000300: d02e 12bd d812 6cbc 628c a3bc 184c 06bd
00000310: 79ed 31bc bac1 09bd 2fa3 11bd 0d3c 3c3c
00000320: eabb c13c 4804 d33c a069 17bd 07db ac3c
00000330: bcc0 efbb a668 9f3c 4982 abbb 6000 12bd
00000340: 8dd4 9c3b 5c5c 7cbc 32ba 0e3d 104f fa3a
00000350: 8725 03bd 0248 11bd 0cce 6bbb 86a0 e63c
00000360: 5469 9b3c 00e2 ab3c a3d8 1f3d e6de 1a3d
00000370: 3e08 1dbb e4d6 d33c c9b5 e6bb 7748 793c
00000380: 7560 e3bb ffde ca3c d21d 83bb 2dc5 fd3b
00000390: e43a 223d 62b5 fabc 55b2 04bd 116c 31bd
000003a0: f8e6 033d 619e 18bc aa53 92bc d040 c73c
000003b0: ef9d 47bd b6ef 37bd 2b08 1ebc 9266 14bd
000003c0: 9b48 cfbc b7e4 63bc 7b7c 8f3c 3227 1b3d
000003d0: f7fe 5e3b 7ebb 80bb 8028 48bd a6a4 54bc
000003e0: f37a c7bb 5715 303c e3ae 173d 5009 403c
000003f0: 38fd 643a ac75 c3bc 9aae a238 cffd c23c

bias f4 [11]
-0.033431232 -0.021679064 -0.020889169 0.02175988 -0.002958535 0.018502701 0.030425942 0.010297645
0.027767532 -0.026144933 0.021523112
00000000: 30ef 08bd 4b98 b1bc c31f abbc c741 b23c
00000010: fbe3 41bb fa92 973c d33f f93c 74b7 283c
00000020: bc78 e33c e62d d6bc 3d51 b03c
